…
.Accelerator object at 0x799db4306ec0>}
Wed 19 Nov 2025 04:35:17 INFO  [TOKENIZER] Encoding sentence embeddings...
Wed 19 Nov 2025 04:35:17 INFO  Use pytorch device_name: cuda:0
Wed 19 Nov 2025 04:35:17 INFO  Load pretrained SentenceTransformer: sentence-transformers/sentence-t5-base
Wed 19 Nov 2025 04:36:24 INFO  [TOKENIZER] Sentence embeddings shape: (24587, 128)
Wed 19 Nov 2025 04:36:24 INFO  [TOKENIZER] Sentence embeddings shape after filtering: (24556, 128)
Wed 19 Nov 2025 04:36:24 INFO  RQVAEModel(
  (encoder): MLP(
    (mlp): Sequential(
      (0): Dropout(p=0.0, inplace=False)
      (1): Linear(in_features=128, out_features=2048, bias=True)
      (2): ReLU()
      (3): Dropout(p=0.0, inplace=False)
      (4): Linear(in_features=2048, out_features=1024, bias=True)
      (5): ReLU()
      (6): Dropout(p=0.0, inplace=False)
      (7): Linear(in_features=1024, out_features=512, bias=True)
      (8): ReLU()
      (9): Dropout(p=0.0, inplace=False)
      (10): Linear(in_features=512, out_features=256, bias=True)
      (11): ReLU()
      (12): Dropout(p=0.0, inplace=False)
      (13): Linear(in_features=256, out_features=128, bias=True)
    )
  )
  (quantization_layer): RQLayer(
    (quantization_layers): ModuleList(
      (0-2): 3 x EMAVQLayer()
    )
  )
  (decoder): MLP(
    (mlp): Sequential(
      (0): Dropout(p=0.0, inplace=False)
      (1): Linear(in_features=128, out_features=256, bias=True)
      (2): ReLU()
      (3): Dropout(p=0.0, inplace=False)
      (4): Linear(in_features=256, out_features=512, bias=True)
      (5): ReLU()
      (6): Dropout(p=0.0, inplace=False)
      (7): Linear(in_features=512, out_features=1024, bias=True)
      (8): ReLU()
      (9): Dropout(p=0.0, inplace=False)
      (10): Linear(in_features=1024, out_features=2048, bias=True)
      (11): ReLU()
      (12): Dropout(p=0.0, inplace=False)
      (13): Linear(in_features=2048, out_features=128, bias=True)
    )
  )
)
